Training/3D2D1DConvKAN_PaviaU_30.pth (torch, 581468 bytes, 30 tensors)

ConvKAN1.linear.base_weight f4 [8, 15]
-0.011045879 -0.12369531 -0.38442943 -0.14698559 -0.25535187 -0.47029585 -0.15549706 0.04484641
0.047221888 -0.25233442 -0.09695031 0.022696193 0.24378121 0.045643568 0.093164094 0.26783603
0.06005172 0.03444248 -0.40015832 0.21168226 -0.1904757 0.072826676 0.04967634 0.27744216
-0.06312122 0.1799196 -0.034059286 -0.21273515 -0.1824398 0.15207714 -0.17075086 -0.35089242
0.14020175 -0.089589246 0.3527885 0.13834035 0.16921417 -0.089273795 0.009716688 -0.26921847
0.28211963 0.01906117 -0.10977829 -0.20724258 -0.24464476 0.17312452 0.12274211 0.12525252
0.40657195 -0.10246939 -0.07925373 -0.13743728 -0.09690456 -0.14432752 -0.13757393 -0.25444427
-0.12117338 0.094062544 -0.11012455 0.10321054 0.02820407 0.31505364 -0.22099073 0.28441975
0.031770233 0.1289375 -0.36193672 0.32735366 0.07442599 0.17962582 -0.12684907 0.03709461
0.077217266 -0.026607987 -0.06267713 -0.24192697 0.05615114 -0.042368338 -0.4302221 0.09064092
-0.24908516 -0.1363333 0.2807408 0.2519806 0.013914888 0.19935755 -0.11806127 0.117009714
0.32288703 -0.08978311 -0.102622405 -0.10352555 -0.011193875 0.26599407 -0.3090965 -0.18878302
-0.38642168 0.30712 -0.2668169 -0.13052337 0.13508712 0.08292676 -0.15802184 0.16569364
0.13638055 0.16425316 -0.010341746 0.45217302 0.22133803 -0.103526264 -0.21037063 -0.112545155
-0.13120665 -0.2738929 -0.071013786 0.1537253 -0.016451059 -0.025094606 0.13515958 -0.27037534
00000000: c6f9 34bc f753 fdbd efd3 c4be 6483 16be
00000010: 7bbd 82be 9eca f0be 9f3a 1fbe dfb0 373d
00000020: bd6b 413d fa31 81be e28d c6bd 5eed b93c
00000030: c8a1 793e c0f4 3a3d d1cc be3d ce21 893e
00000040: cbf8 753d 8f13 0d3d 8de1 ccbe 3cc3 583e
00000050: 100c 43be 2726 953d 6b79 4b3d e60c 8e3e
00000060: b345 81bd d83c 383e c081 0bbd 3ed7 59be
00000070: 80d1 3abe 1cba 1b3e 50d9 2ebe 2ca8 b3be
00000080: 0c91 0f3e 917a b7bd b2a0 b43e 18a9 0d3e
00000090: 7b46 2d3e 2ed5 b6bd be32 1f3c 01d7 89be
000000a0: fc71 903e 2c26 9c3c 71d3 e0bd 6637 54be
000000b0: 2884 7abe 8e47 313e 3760 fb3d 3242 003e
000000c0: 332a d03e 79db d1bd c84f a2bd 5cbc 0cbe
000000d0: e675 c6bd 98ca 13be 2ee0 0cbe 8546 82be
000000e0: c029 f8bd dda3 c03d fb88 e1bd 0c60 d33d
000000f0: 390c e73c b64e a13e 654b 62be 779f 913e
00000100: 8121 023d 3108 043e c54f b9be e69a a73e
00000110: a76c 983d d5ef 373e b9e4 01be 85f0 173d
00000120: 1624 9e3d fef8 d9bc de5c 80bd b4bb 77be
00000130: bdfe 653d 6c8a 2dbd 1246 dcbe f2a1 b93d
00000140: 2e10 7fbe f59a 0bbe 42bd 8f3e 9a03 813e
00000150: 45fb 633c 6324 4c3e 1bca f1bd caa2 ef3d
00000160: 7351 a53e 35e0 b7bd b22b d2bd 3405 d4bd
00000170: 8466 37bc 6030 883e e541 9ebe 5650 41be
00000180: 10d9 c5be d53e 9d3e 3a9c 88be eba7 05be
00000190: 4754 0a3e 81d5 a93d 7ad0 21be 98ab 293e
000001a0: 58a7 0b3e fb31 283e 6d70 29bc 3983 e73e
000001b0: 70a6 623e 9405 d4bd 666b 57be 137e e6bd
000001c0: 095b 06be b13b 8cbe ad6f 91bd 2a6a 1d3e
000001d0: 5fc4 86bc 3493 cdbc 4667 0a3e a36e 8abe

ConvKAN1.linear.spline_weight f4 [8, 15, 8]
-1.3605938e-37 -1.0380699e-37 0.02965506 0.020936344 0.027298637 -0.011799109 0.008050853 -0.0043036803
5.308536e-37 2.43606e-37 0.19104761 0.069440305 -0.06557867 -0.024010088 0.045934655 -0.002040439
3.3854422e-37 1.4988685e-37 -0.17094749 -0.05300666 -0.09663631 0.19256386 0.32691896 0.08302799
-4.155624e-37 -3.796835e-37 0.29168585 0.03583684 -0.11395742 -0.14555989 0.24320275 0.15738119
-5.10625e-37 -5.9393127e-37 -0.16437167 -0.03365612 -0.05001998 -0.07878979 0.34505087 0.62387896
1.315774e-37 -3.8524013e-37 -1.3076581 -0.3049895 0.11188134 -0.05558615 0.26336306 0.3195977
3.114015e-37 6.382031e-38 0.12405264 0.013015829 -0.007888814 0.036551785 -0.11048344 -0.5100249
-5.5009086e-37 6.1959665e-37 0.113809414 0.1302823 -0.05241961 -0.48158088 0.21383913 0.5766789
1.5853007e-37 4.3413446e-37 -0.32648072 -0.029505149 0.03543825 -0.09084922 0.16663018 0.30296522
3.5620884e-37 3.6871342e-37 -0.3587228 -0.023616394 0.007839917 -0.24657895 0.35142687 0.44883627
-5.743194e-37 -3.8419743e-37 0.03031768 -0.0025436354 -0.02245535 0.059845556 0.18760097 0.027846549
5.8562926e-37 3.997348e-37 -0.011347822 -0.008279676 -0.008495975 0.03171724 0.15796049 -0.035764214
1.9659637e-37 3.406158e-37 -0.22690213 -0.019380549 0.006275695 -0.22790627 0.23807326 0.5123327
8.1555503e-38 6.2302914e-37 0.026711386 -0.011009943 -0.017308988 0.07082503 0.15635602 0.056131963
-4.7164433e-37 -3.7052625e-37 0.030620156 0.010733102 -0.008541845 0.007379111 0.08641279 -0.06823011
-1.4786162e-37 5.1739684e-37 -0.068494 -0.09094878 0.0947304 0.09027471 -0.047576323 0.05207766
-6.7735943e-37 -5.8532107e-37 0.06964303 0.0060954476 0.005676533 -0.44827774 0.103798024 0.2869827
2.426058e-37 -5.3819888e-37 -0.3905559 -0.25163445 0.020659477 0.042468883 -0.10266396 0.06852683
5.758859e-37 -3.2580066e-38 -0.10561065 0.119210094 0.20024197 0.26581112 -0.2599906 -0.66492164
6.509125e-37 -3.5225087e-37 0.1828882 0.24079062 0.04043755 0.053295378 -0.020668028 -0.79127693
5.7768877e-37 -4.9450713e-38 0.1135345 0.09892973 -0.05649809 0.027262965 -0.0333159 0.14872774
-2.3160896e-37 5.8950407e-37 0.0895744 -0.020735737 -0.2677373 -0.21578395 0.22724065 1.0737982
-1.6179836e-37 -3.6136268e-37 -0.11918293 -0.42719552 -0.018857632 0.066814415 -0.089685604 0.4066582
2.8047915e-37 1.3025003e-37 0.08551977 -0.06268775 -0.061997168 -0.02254075 -0.009127235 0.4683813
-6.8014913e-38 1.4075088e-37 0.0068968395 0.029216742 0.0014809816 -0.0037928678 0.007711432 -0.054384988
4.468093e-37 -2.485971e-39 -0.0049147075 -0.044761043 -0.003203889 0.021686561 -0.038429435 0.23981784
-6.2186716e-37 8.536838e-38 0.09959035 -0.13605821 -0.061279308 0.079890296 -0.08706207 0.19315049
5.5340568e-37 9.506476e-38 0.0050263717 -0.0006616047 -0.0126379505 0.01238642 -0.018808538 0.103309475
-1.2170671e-37 2.8088115e-37 0.04073595 -0.066708624 0.0068635964 0.022352098 -0.043693345 0.28931445
-1.1768311e-37 4.302122e-37 -0.009881854 -0.009098035 0.019365294 -0.009785567 0.00848999 -0.028578024
-3.489113e-37 6.1086196e-37 -0.061616197 -0.13966241 -0.25837657 -0.18230163 0.086108714 0.048597418
-5.1984236e-37 -3.1793727e-37 0.17115967 0.009800722 -0.16261858 -0.3788226 0.2583719 0.31935415
00000000: c631 3982 754b 0d82 2bef f23c b282 ab3c
00000010: 64a1 df3c 0d51 41bc bae7 033c e305 8dbb
00000020: dfa3 3403 27ca a502 fca1 433e b836 8e3d
00000030: 1c4e 86bd ceb0 c4bc fa25 3c3d e3b8 05bb
00000040: b966 e602 f203 4c02 dc0c 2fbe 831d 59bd
00000050: 42e9 c5bd 762f 453e ec61 a73e 940a aa3d
00000060: 9768 0d83 1933 0183 d957 953e a6c9 123d
00000070: 8262 e9bd a70d 15be 240a 793e 8928 213e
00000080: b6c1 2d83 b61a 4a83 0c51 28be 00db 09bd
00000090: c0e1 4cbd 8b5c a1bd 82aa b03e 88b6 1f3f
000000a0: 0818 3302 2617 0383 5761 a7bf 9527 9cbe
000000b0: 0b22 e53d 4eae 63bd 86d7 863e 4fa2 a33e
000000c0: cbed d302 44bc ad01 4f0f fe3d 5840 553c
000000d0: 1640 01bc 53b7 153d 2445 e2bd fe90 02bf
000000e0: ac2f 3b83 7bd6 5203 e914 e93d b968 053e
000000f0: f2b5 56bd c591 f6be a5f8 5a3e 3aa1 133f
00000100: abc7 5702 72ba 1303 7b28 a7be c8b4 f1bc
00000110: b327 113d 280f babd 1aa1 2a3e 421e 9b3e
00000120: 556c f202 f0ee fa02 84aa b7be 2b77 c1bc
00000130: ff72 003c 317f 7cbe 39ee b33e decd e53e
00000140: 476e 4383 51bc 0283 c95c f83c 1fb3 26bb
00000150: 48f4 b7bc 9d20 753d 781a 403e 721e e43c
00000160: 8147 4703 d005 0803 37ec 39bc 7aa7 07bc
00000170: b432 0bbc f0e9 013d 65c0 213e 7f7d 12bd
00000180: ebcb 8502 a4cf e702 0859 68be f5c3 9ebc
00000190: 58a4 cd3b 4360 69be 7ac9 733e 3c28 033f
000001a0: e403 de01 7e01 5403 d6d1 da3c 0c63 34bc
000001b0: 94cb 8dbc b70c 913d cb1b 203e a1ea 653d
000001c0: 047e 2083 c72a fc82 1fd7 fa3c e5d9 2f3c
000001d0: 18f3 0bbc 78cc f13b 30f9 b03d 3abc 8bbd
000001e0: 4142 4982 9f0f 3003 9546 8cbd 5b43 babd
000001f0: 0302 c23d f2e1 b83d 64df 42bd 624f 553d
00000200: 547e 6683 a82c 4783 01a1 8e3d 52bc c73b
00000210: 3602 ba3b a984 e5be 0f94 d43d 65ef 923e
00000220: e41b a502 bc23 3783 f1f6 c7be 3bd6 80be
00000230: 103e a93c daf3 2d3d 7b41 d2bd cb57 8c3d
00000240: bdf6 4303 fc61 3181 654a d8bd 6c24 f43d
00000250: 3b0c 4d3e 6518 883e 7d1d 85be 4e38 2abf
00000260: 7a7e 5d03 c2ba ef82 0b47 3b3e d191 763e
00000270: d8a1 253d 414c 5a3d ff4f a9bc 2091 4abf
00000280: ca93 4403 1e9e 8681 c784 e83d ac9b ca3d
00000290: 8b6a 67bd 9556 df3c 4176 08bd 164c 183e
000002a0: f99f 9d82 0c99 4803 c872 b73d fedd a9bc
000002b0: dd14 89be 78f6 5cbe c6b1 683e 3872 893f
000002c0: 803a 5c82 42ee f582 2e16 f4bd 5fb9 dabe
000002d0: 527b 9abc ffd5 883d 16ad b7bd 8135 d03e
000002e0: 5ce2 be02 8349 3102 fd24 af3d 6f62 80bd
000002f0: bef0 7dbd 61a7 b8bc 668a 15bc accf ef3e
00000300: 7a27 b981 8694 3f02 e2fe e13b f357 ef3c
00000310: 7f1d c23a c391 78bb 2eb0 fc3b cbc2 5ebd
00000320: 940a 1803 e011 1b80 8e0b a1bb 5b57 37bd
00000330: 56f8 51bb 04a8 b13c 2f68 1dbd cf92 753e
00000340: 459c 5383 1465 e801 07f6 cb3d d852 0bbe
00000350: 0300 7bbd 869d a33d 994d b2bd 3ec9 453e
00000360: 6f50 3c03 3c65 0102 43b4 a43b 8a6f 2dba
00000370: 680f 4fbc 69f0 4a3c 5d14 9abc eb93 d33d
00000380: 99a8 2582 6628 bf02 bdda 263d 889e 88bd
00000390: 05e8 e03b bf1b b73c cbf7 32bd 0621 943e
000003a0: 942e 2082 c564 1203 80e7 21bc ed0f 15bc
000003b0: f7a3 9e3c a553 20bc 9919 0b3c 761c eabc
000003c0: ec74 ed82 95dd 4f03 4461 7cbd aa03 0fbe
000003d0: ef49 84be 47ad 3abe c459 b03d 160e 473d
000003e0: a8e4 3083 7c60 d882 7b44 2f3e 3593 203c
000003f0: 7c85 26be 09f5 c1be 5249 843e 6382 a33e

ConvKAN1.linear.spline_scaler f4 [8, 15]
0.0065331594 0.0051202667 -0.17769764 -0.25619256 -0.21896021 -1.1571436 0.0038049258 -0.48786128
-0.010370439 -0.3065574 0.028478656 0.014184068 -0.19670153 0.02887518 0.0023559032 0.013367298
0.45965025 -0.016551523 0.7058375 -0.24295938 0.00089575374 1.099833 0.14481407 0.028292706
-0.0025762809 0.0041904855 0.017263113 0.0023548382 0.0034755126 -0.001272831 -0.37146327 -0.5156432
-0.40147495 0.0012080068 -0.8325086 0.5668825 0.2666912 0.3691464 -0.0010326256 0.114183374
-0.0003368806 4.904584e-05 0.00019278901 0.00020155759 -0.0018200804 0.00061454275 0.4872079 -0.33938587
-0.4734546 -0.16380742 0.022639835 0.0015703153 0.15591484 0.0005812826 0.0003591315 -0.24169584
0.0019489672 -0.22827971 0.06542844 0.0008190228 -0.003381251 0.16977236 0.27556118 -0.18306439
-0.47505635 0.8518136 0.4239949 -0.20467858 0.000102977574 -0.22907688 -0.00017100963 0.00036814698
-5.4308905e-05 -0.0020067585 -0.090474084 0.015080844 -0.0005093516 0.00049456593 0.33203858 -0.5292823
-0.5345511 0.0003470523 -0.63132226 -0.050734367 0.02880332 -0.0464192 -0.034757257 0.043913182
-0.0034816093 0.18176395 0.011506254 -0.24667555 0.21517453 0.5138461 0.06954707 -0.9758439
0.6119746 -0.3369762 0.008102452 -5.85909e-05 -0.0001960733 -0.000113906666 0.00019940382 0.0012227905
0.00021855303 0.45249373 -0.00016200184 -0.8383125 -0.21695699 0.00019012437 -0.57869035 0.0016643078
0.00039678786 0.0014736588 0.3057804 0.00057752995 -0.4845251 0.00055553764 -0.00032471237 0.00037154244
00000000: 1d14 d63b e9c7 a73b 5ff6 35be ac2b 83be
00000010: 1b37 60be 481d 94bf 105c 793b f4c8 f9be
00000020: c6e8 29bc 17f5 9cbe 124c e93c 4b64 683c
00000030: 206c 49be a48b ec3c 7f65 1a3b 8302 5b3c
00000040: 4757 eb3e 0f97 87bc c4b1 343f 58ca 78be
00000050: 04d1 6a3a 54c7 8c3f 244a 143e 1bc6 e73c
00000060: d2d6 28bb 5750 893b 5f6b 8d3c a153 1a3b
00000070: 6dc5 633b 1fd5 a6ba 6f30 bebe 3101 04bf
00000080: 208e cdbe fb55 9e3a 491f 55bf 361f 113f
00000090: c08b 883e c200 bd3e 2a59 87ba f9d8 e93d
000000a0: 599f b0b9 92b6 4d38 6827 4a39 3459 5339
000000b0: c48f eeba 4419 213a 5073 f93e fcc3 adbe
000000c0: a468 f2be 22bd 27be 2d77 b93c 0ad3 cd3a
000000d0: 24a8 1f3e 3761 183a d049 bc39 1d7f 77be
000000e0: 7d74 ff3a 28c2 69be 59ff 853d b1b3 563a
000000f0: fa97 5dbb ced8 2d3e 5b16 8d3e 3b75 3bbe
00000100: 963a f3be 7510 5a3f dc15 d93e 4397 51be
00000110: aaf5 d738 2193 6abe 0c51 33b9 da03 c139
00000120: bec9 63b8 d283 03bb 7a4a b9bd a515 773c
00000130: 0286 05ba c2a5 013a f600 aa3e 0b7f 07bf
00000140: 57d8 08bf 92f4 b539 569e 21bf d7ce 4fbd
00000150: f1f4 eb3c 0f22 3ebd a05d 0ebd 4fde 333d
00000160: b62b 64bb 5420 3a3e ba84 3c3c 8498 7cbe
00000170: b656 5c3e 6b8b 033f b26e 8e3d e8d0 79bf
00000180: 5eaa 1c3f 2588 acbe 26c0 043c 80bf 75b8
00000190: 0799 4db9 2de1 eeb8 0e17 5139 0a46 a03a
000001a0: 622b 6539 42ad e73e 0adf 29b9 a69b 56bf
000001b0: f929 5ebe 1f5c 4739 0d25 14bf e724 da3a
000001c0: f707 d039 c927 c13a 408f 9c3e 6165 173a
000001d0: ad13 f8be 80a1 113a 283e aab9 95cb c239

ConvKAN1.linear.grid f4 [15, 12]
-2.2 -1.8 -1.4 -1.0 -0.6 -0.19999999 0.20000005 0.6
1.0 1.4000001 1.8 2.2 -2.2 -1.8 -1.4 -1.0
-0.6 -0.19999999 0.20000005 0.6 1.0 1.4000001 1.8 2.2
-2.2 -1.8 -1.4 -1.0 -0.6 -0.19999999 0.20000005 0.6
1.0 1.4000001 1.8 2.2 -2.2 -1.8 -1.4 -1.0
-0.6 -0.19999999 0.20000005 0.6 1.0 1.4000001 1.8 2.2
-2.2 -1.8 -1.4 -1.0 -0.6 -0.19999999 0.20000005 0.6
1.0 1.4000001 1.8 2.2 -2.2 -1.8 -1.4 -1.0
-0.6 -0.19999999 0.20000005 0.6 1.0 1.4000001 1.8 2.2
-2.2 -1.8 -1.4 -1.0 -0.6 -0.19999999 0.20000005 0.6
1.0 1.4000001 1.8 2.2 -2.2 -1.8 -1.4 -1.0
-0.6 -0.19999999 0.20000005 0.6 1.0 1.4000001 1.8 2.2
-2.2 -1.8 -1.4 -1.0 -0.6 -0.19999999 0.20000005 0.6
1.0 1.4000001 1.8 2.2 -2.2 -1.8 -1.4 -1.0
-0.6 -0.19999999 0.20000005 0.6 1.0 1.4000001 1.8 2.2
-2.2 -1.8 -1.4 -1.0 -0.6 -0.19999999 0.20000005 0.6
1.0 1.4000001 1.8 2.2 -2.2 -1.8 -1.4 -1.0
-0.6 -0.19999999 0.20000005 0.6 1.0 1.4000001 1.8 2.2
-2.2 -1.8 -1.4 -1.0 -0.6 -0.19999999 0.20000005 0.6
1.0 1.4000001 1.8 2.2 -2.2 -1.8 -1.4 -1.0
-0.6 -0.19999999 0.20000005 0.6 1.0 1.4000001 1.8 2.2
-2.2 -1.8 -1.4 -1.0 -0.6 -0.19999999 0.20000005 0.6
1.0 1.4000001 1.8 2.2
00000000: cdcc 0cc0 6666 e6bf 3333 b3bf 0000 80bf
00000010: 9a99 19bf cccc 4cbe d0cc 4c3e 9a99 193f
00000020: 0000 803f 3433 b33f 6666 e63f cdcc 0c40
00000030: cdcc 0cc0 6666 e6bf 3333 b3bf 0000 80bf
00000040: 9a99 19bf cccc 4cbe d0cc 4c3e 9a99 193f
00000050: 0000 803f 3433 b33f 6666 e63f cdcc 0c40
00000060: cdcc 0cc0 6666 e6bf 3333 b3bf 0000 80bf
00000070: 9a99 19bf cccc 4cbe d0cc 4c3e 9a99 193f
00000080: 0000 803f 3433 b33f 6666 e63f cdcc 0c40
00000090: cdcc 0cc0 6666 e6bf 3333 b3bf 0000 80bf
000000a0: 9a99 19bf cccc 4cbe d0cc 4c3e 9a99 193f
000000b0: 0000 803f 3433 b33f 6666 e63f cdcc 0c40
000000c0: cdcc 0cc0 6666 e6bf 3333 b3bf 0000 80bf
000000d0: 9a99 19bf cccc 4cbe d0cc 4c3e 9a99 193f
000000e0: 0000 803f 3433 b33f 6666 e63f cdcc 0c40
000000f0: cdcc 0cc0 6666 e6bf 3333 b3bf 0000 80bf
00000100: 9a99 19bf cccc 4cbe d0cc 4c3e 9a99 193f
00000110: 0000 803f 3433 b33f 6666 e63f cdcc 0c40
00000120: cdcc 0cc0 6666 e6bf 3333 b3bf 0000 80bf
00000130: 9a99 19bf cccc 4cbe d0cc 4c3e 9a99 193f
00000140: 0000 803f 3433 b33f 6666 e63f cdcc 0c40
00000150: cdcc 0cc0 6666 e6bf 3333 b3bf 0000 80bf
00000160: 9a99 19bf cccc 4cbe d0cc 4c3e 9a99 193f
00000170: 0000 803f 3433 b33f 6666 e63f cdcc 0c40
00000180: cdcc 0cc0 6666 e6bf 3333 b3bf 0000 80bf
00000190: 9a99 19bf cccc 4cbe d0cc 4c3e 9a99 193f
000001a0: 0000 803f 3433 b33f 6666 e63f cdcc 0c40
000001b0: cdcc 0cc0 6666 e6bf 3333 b3bf 0000 80bf
000001c0: 9a99 19bf cccc 4cbe d0cc 4c3e 9a99 193f
000001d0: 0000 803f 3433 b33f 6666 e63f cdcc 0c40
000001e0: cdcc 0cc0 6666 e6bf 3333 b3bf 0000 80bf
000001f0: 9a99 19bf cccc 4cbe d0cc 4c3e 9a99 193f
00000200: 0000 803f 3433 b33f 6666 e63f cdcc 0c40
00000210: cdcc 0cc0 6666 e6bf 3333 b3bf 0000 80bf
00000220: 9a99 19bf cccc 4cbe d0cc 4c3e 9a99 193f
00000230: 0000 803f 3433 b33f 6666 e63f cdcc 0c40
00000240: cdcc 0cc0 6666 e6bf 3333 b3bf 0000 80bf
00000250: 9a99 19bf cccc 4cbe d0cc 4c3e 9a99 193f
00000260: 0000 803f 3433 b33f 6666 e63f cdcc 0c40
00000270: cdcc 0cc0 6666 e6bf 3333 b3bf 0000 80bf
00000280: 9a99 19bf cccc 4cbe d0cc 4c3e 9a99 193f
00000290: 0000 803f 3433 b33f 6666 e63f cdcc 0c40
000002a0: cdcc 0cc0 6666 e6bf 3333 b3bf 0000 80bf
000002b0: 9a99 19bf cccc 4cbe d0cc 4c3e 9a99 193f
000002c0: 0000 803f 3433 b33f 6666 e63f cdcc 0c40

ConvKAN2.linear.base_weight f4 [16, 8]
0.14954211 0.42566323 0.19571093 -0.351595 -0.06293699 0.339243 -0.2033587 -0.038207818
0.06123962 0.5233316 -0.0876175 0.09546733 -0.43714502 -0.35858008 -0.39263234 0.22071603
-0.06723602 -0.3198128 -0.17079857 -0.10643408 0.51759195 0.25869894 0.29677027 0.019385016
-0.19844179 0.034071874 -0.056382667 0.18325327 -0.2038336 0.096933775 -0.29237205 0.7696179
-0.4504284 -0.37180626 0.65290356 -0.24772784 -0.42285284 -0.23866414 -0.21327657 -0.46204796
0.082528375 -0.5140714 -0.29762635 0.144336 0.28498474 -0.38238823 0.19024138 -0.37688282
0.0745528 -0.49123526 -0.15875144 0.02454535 0.3762524 -0.10061093 0.04694055 -0.38062215
-0.3139422 0.43147507 0.29587743 -0.24551158 -0.07653824 -0.14512974 0.13897255 -0.5480093
0.061510127 -0.44822404 0.4470137 0.032829285 -0.48494983 0.039863687 0.037770554 0.71599185
-0.37443852 -0.4061383 -0.17483053 -0.13631542 0.20477664 0.59514284 0.058873646 0.5672821
-0.42930648 -0.42880717 -0.25267684 0.33083114 -0.11375118 -0.54579145 -0.1403411 0.25777763
-0.30315456 -0.16955496 0.24955031 -0.07880358 -0.05884583 -0.5404976 0.20710717 0.6038554
0.4678246 0.30893555 -0.33375996 0.078958236 -0.024235485 0.1913816 0.44162974 -0.34841472
0.07062916 -0.58675563 -0.023626886 0.09570349 0.20658194 -0.24841042 0.38038388 0.6554872
-0.19598393 0.2566768 -0.3105905 0.30411506 0.5314691 -0.23193695 -0.2921227 -0.08900817
-0.18147126 0.6522458 0.07697686 -0.2021708 -0.18634914 0.25175238 -0.36014476 0.30790618
00000000: 9121 193e 88f0 d93e 7268 483e 4304 b4be
00000010: 1ce5 80bd 42b1 ad3e 433d 50be cd7f 1cbd
00000020: 65d6 7a3d 0ff9 053f ce70 b3bd 6084 c33d
00000030: 79d1 dfbe cf97 b7be 1b07 c9be 6203 623e
00000040: 0ab3 89bd 81be a3be d2e5 2ebe 1cfa d9bd
00000050: e880 043f 3074 843e 46f2 973e 53cd 9e3c
00000060: 5334 4bbe f38e 0b3d 83f1 66bd bfa6 3b3e
00000070: c1b9 50be 3785 c63d cab1 95be ae05 453f
00000080: 8d9e e6be 645d bebe b024 273f 5eac 7dbe
00000090: 2b80 d8be 5f64 74be 2c65 5abe 8d91 ecbe
000000a0: a304 a93d 2f9a 03bf 7b62 98be d1cc 133e
000000b0: 85e9 913e 64c8 c3be a3ce 423e c9f6 c0be
000000c0: 23af 983d 3083 fbbe bd8f 22be 5413 c93c
000000d0: 28a4 c03e 1a0d cebd bc44 403d e8e0 c2be
000000e0: 08bd a0be 4dea dc3e 3f7d 973e 6367 7bbe
000000f0: 15c0 9cbd e49c 14be d24e 0e3e 564a 0cbf
00000100: 0bf2 7b3d 9f7d e5be fbde e43e 0078 063d
00000110: 584b f8be 1b48 233d 4cb5 1a3d 3e4b 373f
00000120: 68b6 bfbe 5cf1 cfbe c606 33be 4596 0bbe
00000130: f8b0 513e 485b 183f 7e25 713d 6639 113f
00000140: 0fce dbbe 9d8c dbbe dc5e 81be b362 a93e
00000150: 61f6 e8bd fdb8 0bbf 94b5 0fbe 6efb 833e
00000160: 1337 9bbe d19f 2dbe 1e8a 7f3e c563 a1bd
00000170: 5308 71bd 0d5e 0abf e713 543e 4496 1a3f
00000180: b586 ef3e cd2c 9e3e 96e2 aabe dbb4 a13d
00000190: 7f89 c6bc 8af9 433e 4b1d e23e 6a63 b2be
000001a0: 05a6 903d 9e35 16bf 2c8d c1bc 3100 c43d
000001b0: 378a 533e 4d5f 7ebe adc1 c23e 02ce 273f
000001c0: 03b0 48be 246b 833e b805 9fbe f8b4 9b3e
000001d0: 5c0e 083f e180 6dbe 1b91 95be ea49 b6bd
000001e0: 9ad3 39be 95f9 263f 0ba6 9d3d dd05 4fbe
000001f0: 4fd2 3ebe b0e5 803e e564 b8be e1a5 9d3e

ConvKAN2.linear.spline_weight f4 [16, 8, 8]
0.29958007 -0.16278283 0.060890768 0.07107893 0.12572186 0.46993053 -3.0953428e-37 -2.3662057e-37
4.811108e-16 -0.00040243613 -0.00022154435 -0.0022603231 0.0028176596 -0.017858697 -5.2845544e-06 2.736831e-10
-7.367638e-39 -0.010435244 -0.038247686 -0.00038420057 0.016427333 -0.07577286 0.008508285 2.060154e-24
-3.3176434e-08 -0.011630364 0.12450927 0.09088177 0.030019846 -0.09605353 -0.03160044 -4.0980769e-13
6.000786e-37 -5.234922e-16 0.03263921 0.0057221623 -0.0045574154 0.0049842237 0.0011091024 -2.5760282e-05
-1.4718556e-37 -3.9682105e-05 0.09400153 0.032259267 -0.12052919 -0.21155511 -0.048157707 2.2060374e-07
-3.556075e-37 0.215536 0.10682668 0.019646931 0.11667059 0.46713984 -0.009333419 -1.6305545e-37
-0.029427752 0.14912477 0.012721812 -0.034419067 0.0165896 0.074940786 0.002438779 -0.0012114879
-0.009895766 0.009142018 -0.0041677724 0.0036146413 -0.00093114446 0.043473605 9.532044e-38 -9.858859e-38
1.3840236e-16 0.0034840168 0.009528059 -0.00024866394 0.0019830614 -0.024529357 8.512369e-05 7.008749e-09
-2.0787426e-37 -0.0055878363 0.007102699 -0.004323594 0.005538026 -0.04376564 0.033490602 4.3300446e-23
-6.211452e-11 -0.008199887 -0.026878411 0.0043597533 -0.005201582 0.046446882 -3.1272793e-05 -1.6569501e-15
1.9173476e-37 3.850871e-15 -0.28670058 -0.23927204 -0.01613972 0.1888206 -0.74520814 -0.020405365
-4.313168e-37 -5.3507297e-06 0.031124651 0.020508155 -0.044730563 0.062068302 -0.015864702 5.6259562e-08
6.341298e-37 -0.023888405 -0.0069855577 0.0012690466 0.0006521154 -0.025732867 1.7277075e-09 3.4195442e-37
-0.0057250857 -0.5663647 -0.14391434 0.052168276 -0.09255122 -0.22769998 -0.07781517 0.045569733
-0.01300189 0.007865619 -0.010119931 0.024223395 -0.023028698 -0.020935904 4.1710624e-37 -3.0344744e-37
4.2911123e-16 -0.0029242781 -0.010039307 0.0048180474 -0.0042011496 0.014622467 -0.0005934287 -1.5165251e-10
6.3440176e-37 -0.006486927 0.023584751 -0.0022624093 0.0007140148 -0.008648093 -0.007429161 -1.3731853e-24
-4.5556633e-10 0.016441025 -0.0316372 0.0013632133 9.2118076e-05 -0.0054569454 0.015575371 4.949271e-15
-6.9266075e-37 -7.886624e-16 -0.006104301 -0.011274619 0.0058586528 -0.008846704 -0.012576672 4.6987298e-06
5.6935407e-37 0.00028871317 -0.052302316 -0.049457647 0.11969673 0.054231253 -0.022884477 6.2112514e-07
5.6707666e-37 0.040348325 -0.052152745 -2.9953817e-05 0.023994215 -0.025472995 4.976438e-10 -3.4359762e-37
-0.030087464 -0.034415875 -0.03099438 0.0045623356 0.012908712 0.051881284 0.00065228186 -0.0011610239
0.1519941 0.010508176 0.026696114 -0.14592358 0.09832777 0.26716447 -1.5899037e-37 4.285027e-37
-2.7238912e-16 -0.0021507668 -0.005292804 -0.0050536008 0.0052161124 -0.024009805 5.6531444e-06 -7.0707373e-10
2.3826316e-37 -0.00017709086 -0.0075878846 0.0055664824 -0.004039248 0.00233175 0.0020806338 6.2361726e-24
7.318382e-10 -0.013549306 -0.08256516 -0.00014847032 0.013654757 0.01321014 -0.007956725 -1.8545036e-14
-1.5805198e-37 2.2544453e-13 0.090151064 0.13392027 0.013492704 -0.1869436 0.40658942 0.024021389
1.6504894e-37 5.5979143e-07 0.00033568675 -0.0013549124 0.003611027 -0.009329743 -0.015761422 -1.2417789e-10
1.7449976e-37 0.011073736 0.028681178 -0.0076766605 -0.0059569166 -0.040903144 -1.0101012e-08 -2.0142784e-37
0.088044725 0.08839624 0.021495722 0.10490022 -0.099459626 -0.36052632 -0.11271409 0.06624939
00000000: 8f62 993e 8bb0 26be 9968 793d d491 913d
00000010: 3bbd 003e bc9a f03e 7aa8 d282 1e09 a182
00000020: b6ab 0a26 10fe d2b9 5c4e 68b9 ee21 14bb
00000030: 7ca8 383b 674c 92bc fa51 b1b6 7975 962f
00000040: fa39 5080 96f8 2abc 9ba9 1cbd 876e c9b9
00000050: 9d92 863c cd2e 9bbd 5566 0b3c 8e65 1f18
00000060: e07d 0eb3 488d 3ebc b7fe fe3d 3920 ba3d
00000070: 2eec f53c b7b7 c4bd 776f 01bd 83b3 e6aa
00000080: 3832 4c03 e8e2 16a6 b1b0 053d fa80 bb3b
00000090: 5f56 95bb b352 a33b 4d5f 913a c917 d8b7
000000a0: af56 4882 5670 26b8 e083 c03d 4b22 043d
000000b0: 02d8 f6bd e7a1 58be 0441 45bd 18df 6c34
000000c0: 9003 f282 78b5 5c3e f2c7 da3d 9af2 a03c
000000d0: fef0 ee3d f42c ef3e 32eb 18bc 88f0 5d82
000000e0: 7812 f1bc 2ab4 183e 266f 503c 02fb 0cbd
000000f0: eae6 873c 8e7a 993d ecd3 1f3b caca 9eba
00000100: da21 22bc 67c8 153c cf91 88bb 9ee3 6c3b
00000110: 0c18 74ba 6111 323d 53be 0102 1c31 0682
00000120: 2b91 1f25 1a54 643b 931b 1c3c 1c5f 82b9
00000130: 40f6 013b caf1 c8bc 6f84 b238 9cd1 f031
00000140: ce78 8d82 2b1a b7bb c2bd e83b efac 8dbb
00000150: 5478 b53b 9a43 33bd 712d 093d 5b63 511a
00000160: 5e97 88ae d258 06bc 1d30 dcbc 43dc 8e3b
00000170: 0872 aabb 163f 3e3d e82a 03b8 abca eea6
00000180: e87c 8202 04be 8a27 6bca 92be bb03 75be
00000190: 7237 84bc 305a 413e f6c5 3ebf 2729 a7bc
000001a0: fec4 1283 6b8a b3b6 20f9 fe3c b800 a83c
000001b0: 6537 37bd 553b 7e3d b1f6 81bc 0ba2 7133
000001c0: 7fc8 5703 9eb1 c3bc 1be7 e4bb 2356 a63a
000001d0: b9f2 2a3a bccd d2bc 4e74 ed30 ddb8 e802
000001e0: 8099 bbbb 47fd 10bf 485e 13be 67ae 553d
000001f0: 7e8b bdbd 2f2a 69be 8f5d 9fbd 54a7 3a3d
00000200: e105 55bc ccde 003c 11ce 25bc 2470 c63c
00000210: aea6 bcbc c681 abbc 14ef 0d03 0084 ce82
00000220: a45d f725 3fa5 3fbb e87b 24bc b6e0 9d3b
00000230: cca9 89bb 1293 6f3c 5390 1bba 63be 26af
00000240: 30e0 5703 4a90 d4bb cf34 c13c ee44 14bb
00000250: b92c 3b3a bbb0 0dbc 5270 f3bb 797d d497
00000260: 4373 faaf 54af 863c 0296 01bd d9ad b23a
00000270: 842f c138 2dd0 b2bb d72f 7f3c f850 b227
00000280: 43b3 6b83 0451 63a6 9706 c8bb 2eb9 38bc
00000290: f1f9 bf3b c4f1 10bc 630e 4ebc c8a9 9d36
000002a0: bcbd 4103 6d5e 9739 f43a 56bd 1a94 4abd
000002b0: 8f23 f53d 9721 5e3d 3a78 bbbc 65bb 2635
000002c0: 58f7 4003 4944 253d 1e9e 55bd 5545 fbb7
000002d0: 848f c43c beac d0bc 92ca 0830 26d7 e982
000002e0: fc79 f6bc a9f7 0cbd ede7 fdbc a57f 953b
000002f0: 107f 533c 7881 543d e5fd 2a3a 7f2d 98ba
00000300: 57a4 1b3e 7c2a 2c3c cfb1 da3c fe6c 15be
00000310: 1260 c93d c8c9 883e 0f68 5882 dacf 1103
00000320: 8a05 9da5 e1f3 0cbb 426f adbb ad98 a5bb
00000330: eceb aa3b 36b0 c4bc 24b0 bd36 e45b 42b0
00000340: 4c27 a202 77b1 39b9 caa3 f8bb 0a67 b63b
00000350: ab5b 84bb 46d0 183b 3e5b 083b 1040 f118
00000360: 892a 4930 e9fd 5dbc ec17 a9bd b3ae 1bb9
00000370: 34b8 5f3c 586f 583c ec5c 02bc f109 a7a8
00000380: 1421 5782 f6d3 7d2a 1fa1 b83d 6522 093e
00000390: 8110 5d3c 256e 3fbe 7d2c d03e 81c8 c43c
000003a0: 29a7 6002 9344 1635 1dff af39 5197 b1ba
000003b0: fba6 6c3b c7db 18bc 191e 81bc f888 08af
000003c0: 4b84 6d02 9d6e 353c caf4 ea3c 7f8c fbbb
000003d0: 3d32 c3bb 0e8a 27bd b888 2db2 ae15 8982
000003e0: cb50 b43d 1609 b53d cc17 b03c edd5 d63d
000003f0: 7db1 cbbd e896 b8be a5d6 e6bd c3ad 873d

ConvKAN2.linear.spline_scaler f4 [16, 8]
0.24811728 0.00011464263 0.0009770412 0.23245046 0.00046718642 -0.068943806 0.19796418 -0.008872484
0.0005850143 -0.00029404124 -0.0005686719 -0.0002745535 -0.2132516 0.0006383046 -7.512246e-05 -0.17113669
0.0018297115 -1.5914033e-05 0.0006497248 -0.0023366807 -0.00029463737 0.12058065 -0.00033563818 -0.01052727
-0.10967627 0.00012006251 -0.0010873238 -0.0066763563 0.12997513 -0.00055098854 0.0014589349 -0.16204686
-0.0053083226 -0.0040574893 -0.0012710331 -0.00067875773 -0.0005887064 -0.000736274 -0.0009638046 0.002573046
-0.14010972 -1.2225642e-05 0.00093552197 -0.0001369256 -0.21276967 0.0001619808 0.00014039341 0.00465001
-0.32309347 -0.0050150924 -0.00011525574 -0.0003955392 0.19087732 -0.06191192 -0.00137267 0.065416254
-0.00023873571 0.0019449882 0.0013705791 1.2348332e-06 8.124477e-05 -0.021684699 -0.14759958 0.012039794
-0.0070705693 0.0452452 0.0003409384 0.00039416054 0.22637768 -0.0029873888 0.0018690665 7.3978226e-05
-0.00026632228 7.633545e-05 0.029707406 -0.0032079455 -6.904905e-05 0.0034050017 -0.001305991 -0.0029842271
-0.22530581 0.00015061941 0.010045619 0.0021495412 0.0009058263 -0.0019426586 -0.0017437286 0.008039732
-0.12004344 -0.006595621 -0.0009921971 0.00073386903 0.0010661272 0.22712499 -0.0031113147 -0.003907212
-0.0105578005 -0.0003760881 0.2376738 0.0010697477 -0.00042973482 -0.002985353 -0.0021945306 -0.0015063717
0.0008732236 -0.0010285735 0.0032142294 0.016445348 -0.0018913436 -0.000105234845 -0.011404447 0.17312033
0.0040191845 0.0014584372 0.004998696 0.031218095 -0.31120068 -0.0008338931 0.0081300475 0.0037304815
0.09734538 -0.3858401 0.00023022306 0.00044400868 -0.0016618926 0.07457365 0.36087325 -0.0041202814
00000000: 7512 7e3e 4b6c f038 1010 803a 7e07 6e3e
00000010: b3f0 f439 6932 8dbd 1fb7 4a3e e55d 11bc
00000020: a55b 193a 8c29 9ab9 ed12 15ba f2f1 8fb9
00000030: a15e 5abe e653 273a 108b 9db8 753e 2fbe
00000040: eed2 ef3a 207f 85b7 4b52 2a3a ff22 19bb
00000050: 8f79 9ab9 fdf2 f63d 98f8 afb9 927a 2cbc
00000060: f49d e0bd 12ca fb38 8884 8eba 56c5 dabb
00000070: 3318 053e 3770 10ba bb39 bf3a 9def 25be
00000080: 70f1 adbb b0f4 84bb cb98 a6ba a9ee 31ba
00000090: 6b53 1aba 8302 41ba d5a7 7cba 8ca0 283b
000000a0: ec78 0fbe bc1c 4db7 d13d 753a b093 0fb9
000000b0: 4be0 59be 64d9 2939 9236 1339 1c5f 983b
000000c0: 826c a5be a555 a4bb 74b5 f1b8 5f60 cfb9
000000d0: 5875 433e 5a97 7dbd 2aeb b3ba f5f8 853d
000000e0: 2155 7ab9 f9ee fe3a 01a5 b33a 8cbc a535
000000f0: f461 aa38 1ca4 b1bc 5824 17be 8e42 453c
00000100: 3cb0 e7bb 0853 393d fabf b239 55a7 ce39
00000110: 8dcf 673e 11c8 43bb 77fb f43a c224 9b38
00000120: 2ca1 8bb9 4816 a038 f25c f33c 653c 52bb
00000130: 6dce 90b8 7326 5f3b c92d abba 0693 43bb
00000140: 91b6 66be 97ef 1d39 6196 243c 51df 0c3b
00000150: f974 6d3a cea0 feba d38d e4ba 15b9 033c
00000160: 56d9 f5bd 1420 d8bb 9c0c 82ba 1e61 403a
00000170: 4bbd 8b3a 7493 683e 33e7 4bbb 1208 80bb
00000180: a0fa 2cbc b12d c5b9 c360 733e c736 8c3a
00000190: 084e e1b9 eaa5 43bb 1dd2 0fbb 7271 c5ba
000001a0: 0be9 643a 33d1 86ba d2a5 523b 65b8 863c
000001b0: f6e6 f7ba 87b1 dcb8 b8d9 3abc 7546 313e
000001c0: 5db3 833b 0829 bf3a 1acc a33b 17bd ff3c
000001d0: b255 9fbe 9e99 5aba e433 053c 187b 743b
000001e0: 045d c73d d58c c5be 0868 7139 d6c9 e839
000001f0: ddd3 d9ba 12ba 983d 61c4 b83e 6d03 87bb

ConvKAN2.linear.grid f4 [8, 12]
-2.2 -1.8 -1.4 -1.0 -0.6 -0.19999999 0.20000005 0.6
1.0 1.4000001 1.8 2.2 -2.2 -1.8 -1.4 -1.0
-0.6 -0.19999999 0.20000005 0.6 1.0 1.4000001 1.8 2.2
-2.2 -1.8 -1.4 -1.0 -0.6 -0.19999999 0.20000005 0.6
1.0 1.4000001 1.8 2.2 -2.2 -1.8 -1.4 -1.0
-0.6 -0.19999999 0.20000005 0.6 1.0 1.4000001 1.8 2.2
-2.2 -1.8 -1.4 -1.0 -0.6 -0.19999999 0.20000005 0.6
1.0 1.4000001 1.8 2.2 -2.2 -1.8 -1.4 -1.0
-0.6 -0.19999999 0.20000005 0.6 1.0 1.4000001 1.8 2.2
-2.2 -1.8 -1.4 -1.0 -0.6 -0.19999999 0.20000005 0.6
1.0 1.4000001 1.8 2.2 -2.2 -1.8 -1.4 -1.0
-0.6 -0.19999999 0.20000005 0.6 1.0 1.4000001 1.8 2.2
00000000: cdcc 0cc0 6666 e6bf 3333 b3bf 0000 80bf
00000010: 9a99 19bf cccc 4cbe d0cc 4c3e 9a99 193f
00000020: 0000 803f 3433 b33f 6666 e63f cdcc 0c40
00000030: cdcc 0cc0 6666 e6bf 3333 b3bf 0000 80bf
00000040: 9a99 19bf cccc 4cbe d0cc 4c3e 9a99 193f
00000050: 0000 803f 3433 b33f 6666 e63f cdcc 0c40
00000060: cdcc 0cc0 6666 e6bf 3333 b3bf 0000 80bf
00000070: 9a99 19bf cccc 4cbe d0cc 4c3e 9a99 193f
00000080: 0000 803f 3433 b33f 6666 e63f cdcc 0c40
00000090: cdcc 0cc0 6666 e6bf 3333 b3bf 0000 80bf
000000a0: 9a99 19bf cccc 4cbe d0cc 4c3e 9a99 193f
000000b0: 0000 803f 3433 b33f 6666 e63f cdcc 0c40
000000c0: cdcc 0cc0 6666 e6bf 3333 b3bf 0000 80bf
000000d0: 9a99 19bf cccc 4cbe d0cc 4c3e 9a99 193f
000000e0: 0000 803f 3433 b33f 6666 e63f cdcc 0c40
000000f0: cdcc 0cc0 6666 e6bf 3333 b3bf 0000 80bf
00000100: 9a99 19bf cccc 4cbe d0cc 4c3e 9a99 193f
00000110: 0000 803f 3433 b33f 6666 e63f cdcc 0c40
00000120: cdcc 0cc0 6666 e6bf 3333 b3bf 0000 80bf
00000130: 9a99 19bf cccc 4cbe d0cc 4c3e 9a99 193f
00000140: 0000 803f 3433 b33f 6666 e63f cdcc 0c40
00000150: cdcc 0cc0 6666 e6bf 3333 b3bf 0000 80bf
00000160: 9a99 19bf cccc 4cbe d0cc 4c3e 9a99 193f
00000170: 0000 803f 3433 b33f 6666 e63f cdcc 0c40

ConvKAN3.linear.base_weight f4 [32, 16]
0.113352805 -0.29307085 0.010486436 -0.026079556 0.022513008 0.19630541 0.17339925 -0.3390108
0.25693676 -0.35399535 -0.037769273 0.01301301 0.2592758 0.41221187 -0.4562315 0.013915306
-0.12504928 -0.2581447 -0.0037422536 -0.32834098 0.41643485 -0.17833534 0.11122738 0.039880086
0.3525477 -0.11693833 -0.36717242 -0.037004698 0.025398208 0.024695083 -0.51417917 -0.31941596
0.08473439 0.23040111 -0.29834598 0.2052202 -0.049382064 -0.3206597 -0.5070624 -0.22212599
0.35092726 -0.19951744 -0.04145148 -0.084536426 0.09197849 0.16327485 -0.37863287 -0.14498952
0.38269585 0.16565041 0.1385262 -0.14838251 -0.031042105 -0.14790952 -0.22522718 -0.0015318252
-0.2555993 0.18482181 -0.35597986 -0.067380145 -0.019734407 -0.43922797 0.14275655 0.4785488
0.3295887 -0.13512143 0.21535322 0.28799492 0.40419802 -0.2030084 0.09874649 0.467893
-0.3265036 0.43613762 0.09304203 0.13367979 -0.37698117 -0.43145567 0.16048953 0.34116423
0.16356452 -0.22870617 0.4640768 0.25787166 -0.25515643 0.41350836 0.15387625 -0.27820414
-0.046548475 0.43838492 -0.16660848 0.21921016 -0.083704755 0.08611746 0.2207706 -0.19113699
-0.18875049 0.2768209 -0.37922964 -0.11414457 0.11378531 0.21249975 0.06042776 0.20455778
0.07606101 -0.17962427 0.12978779 0.34021866 0.08530016 -0.3431179 0.14748167 0.40528607
-0.053968735 0.21061341 -0.19351615 0.2891167 0.05510284 0.1429103 -0.04997511 -0.06737743
0.15672164 -0.08335028 0.35442132 0.28438264 0.052297063 0.4762749 -0.12597887 -0.16945192
-0.19515543 0.08818918 -0.2011399 -0.102400064 0.47380126 0.16732122 0.29681382 -0.016868487
0.22700739 0.154481 -0.22261618 0.35941678 0.10112964 -0.06282403 -0.13632853 -0.15580143
-0.16246876 -0.17100039 -0.11772778 0.3355017 0.04443793 -0.38662627 -0.03541851 0.021572072
0.03882091 -0.056182895 0.037270885 0.23346685 -0.048625547 -0.3102703 -0.14630775 0.54527944
-0.07787117 -0.33985877 0.10313092 0.02640547 0.50563484 0.2158935 0.013451676 0.37367123
0.030288013 0.08577523 -0.11001991 0.42456502 -0.030092042 0.070927076 -0.051520083 0.18358323
-0.37860394 0.18114835 0.10721775 -0.050637703 -0.09559163 -0.08952251 -0.21929795 -0.1877125
0.5458869 0.15339875 -0.23915201 0.34713694 0.023866983 0.6047702 -0.09551316 -0.058849357
-0.019011537 -0.11254129 0.04285878 0.12239026 -0.4768596 0.3333727 -0.09415614 -0.3697121
0.11477804 0.09218396 -0.15812509 0.2689525 0.16289164 0.6232026 0.0821551 -0.1634931
-0.1805967 -0.3322408 0.16896167 -0.22021721 -0.1245002 0.1949609 0.40752998 -0.04532496
-0.083374456 -0.2053608 -0.31058583 -0.32471943 0.31111056 0.010746735 0.03880839 0.20241277
-0.27915767 -0.027372112 0.018632993 -0.007625051 0.25980493 0.3274576 0.3150587 0.09457041
0.091867454 -0.16646913 0.36132094 -0.20643012 0.1383952 -0.15391918 -0.06443467 -0.40254796
0.2852136 0.26478502 -0.22314644 0.21102506 0.45884064 -0.31011578 -0.16034545 0.115748
0.035723943 -0.06955249 -0.124709934 0.102800295 -0.29172543 -0.2633863 -0.12072964 0.14893682
00000000: 8425 e83d 620d 96be 4dcf 2b3c cba4 d5bc
00000010: 336d b83c 4904 493e 938f 313e d392 adbe
00000020: 378d 833e e13e b5be f4b3 1abd 8534 553c
00000030: ccbf 843e 6f0d d33e 2d97 e9be 06fd 633c
00000040: eb0c 00be 8b2b 84be 9940 75bb 4f1c a8be
00000050: f336 d53e 8a9d 36be 2ecb e33d 4d59 233d
00000060: 2281 b43e 5d7d efbd 06fe bbbe 3d92 17bd
00000070: e70f d03c 584d ca3c 3fa1 03bf 7d8a a3be
00000080: 3989 ad3d 45ee 6b3e cec0 98be 3e25 523e
00000090: d944 4abd 822d a4be d7ce 01bf ff74 63be
000000a0: bdac b33e 4d4e 4cbe 07c9 29bd 6f21 adbd
000000b0: 385f bc3d 8631 273e 2bdc c1be 2278 14be
000000c0: b6f0 c33e 43a0 293e d0d9 0d3e 96f1 17be
000000d0: 034c febc 9875 17be f4a1 66be 86c7 c8ba
000000e0: e9dd 82be ee41 3d3e fe42 b6be 9afe 89bd
000000f0: 0daa a1bc 7de2 e0be c62e 123e 5904 f53e
00000100: dabf a83e 465d 0abe 8e85 5c3e 1274 933e
00000110: 0bf3 ce3e 6fe1 4fbe 9a3b ca3d ac8f ef3e
00000120: 7b2b a7be 6e4d df3e d28c be3d 5be3 083e
00000130: ad03 c1be c2e7 dcbe 5e57 243e 14ad ae3e
00000140: 757d 273e f331 6abe 799b ed3e c107 843e
00000150: dda3 82be 5eb7 d33e bc91 1d3e c670 8ebe
00000160: 9da9 3ebd fd73 e03e 6a9b 2abe a178 603e
00000170: 666d abbd 5a5e b03d b011 623e 6ab9 43be
00000180: cf47 41be 78bb 8d3e 632a c2be a1c4 e9bd
00000190: 4608 e93d 8999 593e 1983 773d 9877 513e
000001a0: e0c5 9b3d 6def 37be 17e7 043e 2431 ae3e
000001b0: dab1 ae3d 26ad afbe 6f05 173e a881 cf3e
000001c0: 520e 5dbd 0bab 573e 1929 46be 1b07 943e
000001d0: 84b3 613d 1457 123e b3b2 4cbd 2efd 89bd
000001e0: a37b 203e 8db3 aabd b676 b53e 9a9a 913e
000001f0: 7235 563d 4eda f33e 9b00 01be ce84 2dbe
00000200: d3d6 47be 879c b43d 9ef7 4dbe 20b7 d1bd
00000210: 1496 f23e 4156 2b3e fbf7 973e c82f 8abc
00000220: a074 683e 4430 1e3e 7ff5 63be 7a05 b83e
00000230: 0f1d cf3d e3a9 80bd b599 0bbe 698a 1fbe
00000240: 365e 26be ba1a 2fbe 431b f1bd e1c6 ab3e
00000250: 8c04 363d e1f3 c5be 0013 11bd eab7 b03c
00000260: ad02 1f3d 0920 66bd 5ba9 183d ef11 6f3e
00000270: 952b 47bd c0db 9ebe b3d1 15be 6f97 0b3f
00000280: ec7a 9fbd f801 aebe 4e36 d33d 4950 d83c
00000290: 4971 013f 3013 5d3e 6b64 5c3c d651 bf3e
000002a0: 911e f83c ecaa af3d 1e52 e1bd 9660 d93e
000002b0: 9683 f6bc 3742 913d b906 53bd 3efd 3b3e
000002c0: 60d8 c1be f47e 393e fb94 db3d 7b69 4fbd
000002d0: 8bc5 c3bd 9457 b7bd a48f 60be b537 40be
000002e0: 3ebf 0b3f 9014 1d3e 44e4 74be efbb b13e
000002f0: b184 c33c 38d2 1a3f 679c c3bd 060c 71bd
00000300: 15be 9bbc 0c7c e6bd b08c 2f3d bfa7 fa3d
00000310: f126 f4be d4af aa3e efd4 c0bd e84a bdbe
00000320: c010 eb3d f2ca bc3d 8beb 21be 24b4 893e
00000330: 11cd 263e 358a 1f3f ef40 a83d bc6a 27be
00000340: 57ee 38be 771b aabe 4a04 2d3e 9f80 61be
00000350: f6f9 febd d5a3 473e c5a7 d03e aaa6 39bd
00000360: 3ac0 aabd 1a4a 52be 1b05 9fbe a041 a6be
00000370: e249 9f3e 1313 303c 8cf5 1e3d 4b45 4f3e
00000380: c1ed 8ebe 7b3b e0bc 38a4 983c 90db f9bb
00000390: 2705 853e 86a8 a73e 604f a13e 22ae c13d
000003a0: 0125 bc3d e276 2abe 0fff b83e 6b62 53be
000003b0: 79b7 0d3e fd9c 1dbe 53f6 83bd c41a cebe
000003c0: 8407 923e e791 873e 8080 64be f416 583e
000003d0: 29ed ea3e 7fc7 9ebe 9931 24be 4a0d ed3d
000003e0: 4553 123d 8971 8ebd ec67 ffbd f688 d23d
000003f0: 095d 95be 92da 86be 1a41 f7bd e582 183e

ConvKAN3.linear.spline_weight f4 [32, 16, 8]
4.9843626e-37 -8.6841816e-08 0.005416225 -0.0018254558 0.0024114954 -0.021463826 -3.1788506e-05 4.036115e-37
-3.7660374e-37 0.0064166123 0.009747554 0.08996069 0.09266145 0.10223504 2.0148704e-05 -5.05604e-37
-3.5826303e-37 1.2608469e-37 -0.011352953 -0.020646356 -0.012772588 -0.00794875 0.010392743 6.2709187e-37
-8.2353806e-38 0.015066677 -0.004318807 -0.036105644 -0.037218805 0.01694185 -0.029150682 2.4960339e-06
-4.8249607e-37 -0.022384476 -0.050886273 -0.06477012 -0.016003264 -0.008694677 -0.0011834457 -3.797577e-37
2.111012e-37 -0.0010876084 -0.0048293793 0.0072700894 -0.014298211 0.04171897 7.893705e-06 -4.8478443e-37
4.453554e-38 8.959341e-06 -0.015124015 -0.0037179785 0.0022403155 -0.020536676 0.00202567 4.450085e-37
-2.0822613e-08 0.010488514 -0.022504482 -0.009004697 0.011222092 0.018863173 -3.7116104e-05 -5.345442e-37
-5.162542e-37 0.032263678 0.18773834 0.1020094 0.040716927 -0.09348854 0.03232216 4.313151e-06
-6.6099926e-37 -3.732103e-37 -0.034270518 -0.12834486 -0.13511558 -0.059522208 -0.025313271 7.676512e-09
-6.2062733e-37 0.0012675475 -6.956674e-06 -0.0149234645 -0.030788846 -0.021568261 -0.00052400277 -2.6227476e-37
-2.1060337e-37 -4.7400517e-06 -0.0066947583 0.024064852 0.025635373 0.006814144 0.011409958 -1.4052634e-07
-1.3144411e-07 0.027968511 -0.036214784 -0.08329104 -0.065650895 -0.023331767 2.0061045e-38 5.64854e-37
-6.730034e-37 -3.1000574e-05 -0.014805789 0.008071684 -0.00561266 0.026872717 0.0018153416 -2.291829e-07
-5.7369868e-37 5.652784e-09 0.050416045 0.005412205 -0.019681465 -0.019949676 0.0055415137 -5.2965625e-37
2.2263059e-37 -0.000115842275 -0.00015061419 -0.0016973969 0.0013443199 0.0011326941 1.0513663e-05 -9.039209e-12
1.6175074e-37 1.0481843e-09 -0.02406888 0.0025230707 0.00303487 -0.005102923 0.010581467 -3.6243627e-37
2.0858083e-37 0.00441539 -0.11158634 0.0013138147 0.011288954 -0.05780113 4.5753135e-09 5.7503056e-37
-5.969404e-37 -1.9231005e-38 0.008245252 0.004482805 0.00067210704 -0.060061987 0.0029418333 1.1229592e-37
-6.0030465e-37 -0.0010354419 -0.029700367 0.00979167 -0.002371233 -0.030463897 0.00011899138 5.446744e-08
1.1655891e-37 4.184744e-07 0.015463529 0.0079191085 0.008041267 0.050047513 0.0004220789 -5.842633e-37
1.0062209e-37 0.0355379 0.10523824 0.10767135 0.14536823 0.0863981 0.0024975105 3.0442974e-37
3.0220524e-37 1.240163e-06 0.03986232 -0.010580875 0.00967407 0.01959945 -0.0037048205 5.8254547e-37
-6.885969e-10 -6.433088e-07 0.018003639 0.0074892216 0.0018103091 -0.0037236225 -5.090765e-05 -4.063112e-37
3.7586701e-37 -0.015361748 0.0013318312 0.01276007 -0.016203444 -0.003683371 0.003897965 -4.5001883e-07
4.4326922e-37 -4.7096615e-37 0.14800018 0.21398865 0.16925657 0.04052482 -0.02249492 1.744198e-09
3.4434042e-37 0.00013185377 -0.0062221573 -0.0011505057 0.005274232 -0.01253059 -2.7105247e-05 -2.7095453e-37
-2.7929116e-37 7.547239e-08 0.013160476 -0.006971302 0.0049462263 -0.0020445045 -0.00028242506 1.5462712e-08
2.9486838e-10 -0.012445933 -0.003122456 0.0015665701 -0.0010013218 0.010965257 -6.38648e-37 -5.3195577e-37
4.6086675e-37 3.849346e-06 0.005923298 -0.004645824 0.0025322724 0.010350753 0.00058491604 -2.4463969e-08
6.769694e-37 1.8235959e-07 -0.1934862 -0.108444385 -0.13052854 -0.22344571 0.033431098 2.5871225e-37
5.9057313e-37 -0.00016530014 0.003144917 -0.002189527 0.002223841 -0.009091359 0.00035000884 -6.49351e-12
00000000: ec9b 2903 cb7d bab3 977a b13b 2244 efba
00000010: 2e0a 1e3b e8d4 afbc a654 05b8 8557 0903
00000020: d026 0083 7242 d23b 34b4 1f3c 4f3d b83d
00000030: 49c5 bd3d 9b60 d13d 0305 a937 520c 2c83
00000040: 39d2 f382 1a9e 2b02 bc01 3abc 8c22 a9bc
00000050: 1e44 51bc 793b 02bc 5346 2a3c 6863 5503
00000060: 3a30 e081 39da 763c c784 8dbb 83e3 13bd
00000070: bf72 18bd a2c9 8a3c 69cd eebc 8981 2736
00000080: 562f 2483 a65f b7bc 206e 50bd 32a6 84bd
00000090: 4719 83bc 1e74 0ebc d91d 9bba 9039 0183
000000a0: 04ab 8f02 158e 8eba c53f 9ebb ee39 ee3b
000000b0: 0b43 6abc 83e1 2a3d 346f 0437 aef6 2483
000000c0: 7c79 7201 1450 1637 b7ca 77bc 54a9 73bb
000000d0: 42d2 123b 883c a8bc 1ac1 043b b56d 1703
000000e0: 69dd b2b2 04d8 2b3c 525b b8bc 7088 13bc
000000f0: dedc 373c f186 9a3c 1dad 1bb8 5ee5 3583
00000100: 15ac 2f83 eb26 043d 7b3e 403e 4eea d03d
00000110: cbc6 263d eb76 bfbd 3e64 043d afb9 9036
00000120: 28ed 6083 68fe fd82 3e5f 0cbd d66c 03be
00000130: bd5b 0abe 8fcd 73bd c75d cfbc a8e1 0332
00000140: 4430 5383 d623 a63a 606d e9b6 8c81 74bc
00000150: e438 fcbc ecaf b0bc 3b5d 09ba b57e b282
00000160: 4854 8f82 bc0c 9fb6 b45f dbbb a723 c53c
00000170: 4601 d23c 2f49 df3b d5f0 3a3c 96e3 16b4
00000180: 1523 0db4 381e e53c f455 14bd 7e94 aabd
00000190: fa73 86bd 4322 bfbc 0872 da00 b935 4003
000001a0: dd02 6583 9d06 02b8 fb93 72bc 193f 043c
000001b0: 68ea b7bb 2c24 dc3c c2f0 ed3a 5115 76b4
000001c0: 3438 4383 6a3a c231 0e81 4e3d de58 b13b
000001d0: 063b a1bc 816d a3bc 9695 b53b 913b 3483
000001e0: b883 9702 59f0 f2b8 30ee 1db9 307b deba
000001f0: e433 b03a e876 943a d763 3037 fa04 1fad
00000200: e829 5c02 b50f 9030 1a2c c5bc 1a5a 253b
00000210: abe4 463b 6c36 a7bb e45d 2d3c 4ea9 f682
00000220: e8f3 8d02 faae 903b 6187 e4bd 4e34 ac3a
00000230: 4ef5 383c e1c0 6cbd e234 9d31 3aac 4303
00000240: d820 4b83 3868 d180 1817 073c 7ee4 923b
00000250: 5730 303a 8f03 76bd c6cb 403b 6bd9 1802
00000260: e945 4c83 aab7 87ba 2f4e f3bc 3e6d 203c
00000270: b066 1bbb 6c8f f9bc 038b f938 95ef 6933
00000280: daa6 1e02 afaa e034 be5a 7d3c 26bf 013c
00000290: 85bf 033c 9ffe 4c3d 794a dd39 83d0 4683
000002a0: aef5 0802 3090 113d 2587 d73d cc82 dc3d
000002b0: 69db 143e 7df1 b03d 46ad 233b 242f cf02
000002c0: 94ab cd02 ad73 a635 ac46 233d 685b 2dbc
000002d0: fe7f 1e3c 078f a03c 93cc 72bb de3a 4603
000002e0: b347 3db0 d8af 2cb5 5e7c 933c 2568 f53b
000002f0: e547 ed3a 0508 74bb ac85 55b8 b342 0a83
00000300: 45cd ff02 d7af 7bbc d790 ae3a 9d0f 513c
00000310: 16bd 84bc b664 71bb 0075 7f3b 1e9a f1b4
00000320: 32d6 1603 f042 2083 5c8d 173e d71f 5b3e
00000330: 9851 2d3e 5bfd 253d 4447 b8bc 83b8 ef30
00000340: 9058 ea02 3a42 0a39 3de3 cbbb 91cc 96ba
00000350: 77d3 ac3b 1b4d 4dbc 1360 e3b7 f066 b882
00000360: 6213 be82 6313 a233 0a9f 573c 856f e4bb
00000370: f413 a23b 18fd 05bb 7312 94b9 ddd2 8432
00000380: 091b a22f 07ea 4bbc 1ea2 4cbb 5f55 cd3a
00000390: c93e 83ba 9fa7 333c 1652 5983 e203 3583
000003a0: 28d3 1c03 a129 8136 3a18 c23b ff3b 98bb
000003b0: 7bf4 253b 3496 293c 0d55 193a d624 d2b2
000003c0: 5a5c 6603 9fce 4334 3f21 46be 1718 debd
000003d0: 46a9 05be f4ce 64be 0cef 083d 0812 b002
000003e0: 2df6 4803 6b54 2db9 f41a 4e3b 2b7e 0fbb
000003f0: dcbd 113b ecf3 14bc 6481 b739 5778 e4ac

ConvKAN3.linear.spline_scaler f4 [32, 16]
0.00023523835 -0.13507451 -0.01419164 -0.031054713 0.018359898 -0.002769033 -0.0014076511 -0.008238949
-0.1391052 0.24275489 -0.021143757 0.021064471 0.1005372 0.0016728728 -0.010197671 -0.00032689897
0.0015642087 -0.0038159706 -0.0022369856 -0.00086441176 0.0125239035 -0.15121947 0.0012197854 0.002572588
-0.00070565986 -0.26470363 0.0016524292 -0.00086401164 0.00035373744 -0.0008142638 0.16417515 -0.00013342354
0.00092755456 -1.5832358e-05 0.00017139394 0.0018495709 0.00073679176 -0.0010967202 8.26711e-05 -0.0010135403
-0.00017366152 -2.0831845e-05 0.00062986265 -9.0910245e-05 -0.00043290277 -0.0019556866 0.00076043204 0.00025955538
-0.0005774359 -0.0020452426 -0.0016102077 0.0007133146 0.0007899109 -0.0013864888 -0.00023816671 -0.0033225098
0.0010094211 0.0007447439 0.00028388918 0.0021013366 -0.0011941212 -0.0004810422 0.0008220547 0.00039418426
-0.008242759 0.008726225 -0.0008011728 -0.05153661 -0.0107600065 -0.10037139 0.0027669326 -0.0013609823
-0.010576008 -0.014005075 -0.0027817201 0.010799803 0.0040739747 0.12937596 -0.008337294 0.009858154
0.0017337622 -0.114717536 -0.08524913 -1.1605785e-05 0.0022850411 0.05621955 -0.005940194 -0.01092361
0.19281304 -0.095167 0.07373719 0.14465469 -0.13678312 0.025925668 0.14470154 0.0017871996
-0.0018642048 -0.004080879 -0.035824683 0.0034607884 0.001754881 0.0025342654 -0.004690916 -0.004833032
0.0016571112 -0.004879769 -0.0084379865 -0.00021495589 0.00029577682 -0.00091002346 -0.002024174 1.6280566e-05
0.0014117657 0.00041904245 0.00046981385 -0.003522304 -0.00126425 -0.0004965167 -0.0014424933 -0.0002665804
-0.00049331447 4.554409e-06 -0.00034921442 -6.3888096e-05 0.0005237453 3.9349696e-05 0.012342062 -0.0023272145
0.0006405039 0.028813932 -0.0003235956 0.0003659927 0.010354354 0.005926404 0.044302545 -0.00012123288
-0.008804161 -0.0033935304 0.0010414884 -0.0011000698 0.0005404235 -0.00047088065 -0.0019594228 0.10282743
-1.8248094e-05 0.0015025894 0.17555924 -0.13812724 -0.0012333199 -0.002829831 -0.17772862 0.003135873
0.0035200205 0.0032942658 0.124633335 -0.020231841 7.587168e-05 -0.0053236187 -0.0013234639 -0.00028813496
-0.055027027 -0.0044148783 -0.002834875 0.108773135 0.0025825226 -0.052825276 -0.0013692765 -0.03455794
-0.00010602746 -0.028861389 -0.0010152836 -0.038157474 0.034953408 -0.060314942 -0.018622426 0.00145726
0.16249208 -0.0005005903 -0.00783742 -0.002945503 0.24199711 -0.0137469955 -0.20957556 -0.00011322285
0.07852075 -0.0032608449 -0.005941124 -0.048172444 0.0052137724 0.24190854 -0.09820441 0.004203084
-5.6383935e-05 0.0013281303 0.0001534399 -0.0072158817 0.0015820982 -0.0005091029 0.0007544699 9.478486e-05
-0.0018831985 -0.0007721605 -0.00066281186 -0.00019001473 0.00084743474 -0.018519584 6.820154e-05 0.00035853175
-0.0003261286 -0.00019640371 -0.0061202417 -0.0048922575 -0.0037204346 -0.0014698261 -0.0014125613 0.008259966
0.16824229 -0.00049606053 0.11067369 -0.00056677015 0.0006028017 0.00023561614 -0.001099288 -0.05951539
-0.00045963388 -0.0009668232 -0.00085267 0.00028011782 -0.0008989079 -0.00012143401 -4.9497437e-05 -3.2985892e-05
-0.00016431224 0.00085932505 -1.9084473e-07 0.003918694 0.00062943075 -0.0026931514 0.00024023064 0.0002189594
0.00034267415 -0.014399687 -0.01961908 0.003495627 0.22023395 0.0020114311 -0.0012708333 0.00013119445
0.00096034765 0.024807576 -1.3432067e-05 -0.06031913 -0.0031104072 0.0905394 0.00027250056 0.0036403358
00000000: 50aa 7639 f950 0abe 0d84 68bc 7466 febc
00000010: 7f67 963c aa78 35bb ef80 b8ba a8fc 06bc
00000020: 9871 0ebe bd94 783e ac35 adbc 668f ac3c
00000030: 73e6 cd3d 4c44 db3a 2214 27bc a363 abb9
00000040: 2206 cd3a 5d15 7abb 649a 12bb b199 62ba
00000050: 0f31 4d3c 47d9 1abe 35e1 9f3a dd98 283b
00000060: 08fc 38ba 3c87 87be 5396 d83a d77e 62ba
00000070: d675 b939 5274 55ba 881d 283e 9ce7 0bb9
00000080: 2227 733a bbcf 84b7 36b8 3339 4d6d f23a
00000090: 4225 413a d3bf 8fba b55f ad38 c5d8 84ba
000000a0: e918 36b9 0cc0 aeb7 5e1d 253a 11a7 beb8
000000b0: 3af7 e2b9 fa2a 00bb bb57 473a ef14 8839
000000c0: 115f 17ba 7a09 06bb 9b0d d3ba bcfd 3a3a
000000d0: 0612 4f3a d8ba b5ba 64bc 79b9 77be 59bb
000000e0: 8d4e 843a eb3a 433a f6d6 9439 94b6 093b
000000f0: 0f84 9cba 6434 fcb9 287f 573a 84aa ce39
00000100: a30c 07bc 71f8 0e3c cc05 52ba 0d18 53bd
00000110: bd4a 30bc 848f cdbd 6d55 353b fd62 b2ba
00000120: fe46 2dbc 8b75 65bc 854d 36bb a8f1 303c
00000130: fa7e 853b 227b 043e 2599 08bc 1884 213c
00000140: 683f e33a 07f1 eabd 1997 aebd 78b6 42b7
00000150: a1c0 153b 7946 663d f5a5 c2bb f1f8 32bc
00000160: c870 453e ebe6 c2bd 8603 973d 5c20 143e
00000170: e010 0cbe 1162 d43c a42c 143e 7840 ea3a
00000180: 5558 f4ba e5b8 85bb e7bc 12bd 65ce 623b
00000190: 0904 e63a eb15 263b 41b6 99bb 695e 9ebb
000001a0: 6d33 d93a 78e6 9fbb 7b3f 0abc c865 61b9
000001b0: 7e12 9b39 a48e 6eba 01a8 04bb 4092 8837
000001c0: ff0a b93a edb2 db39 5951 f639 74d6 66bb
000001d0: 31b5 a5ba ac28 02ba 0b12 bdba d1c3 8bb9
000001e0: c651 01ba 13d2 9836 c416 b7b9 a9fb 85b8
000001f0: f44b 093a 6a0b 2538 5c36 4a3c 2e84 18bb
00000200: 7de7 273a 320b ec3c 44a8 a9b9 b5e2 bf39
00000210: 4fa5 293c 4832 c23b 9676 353d 683e feb8
00000220: 543f 10bc fe65 5ebb 8d82 883a 3830 90ba
00000230: 35ab 0d3a 88e0 f6b9 a969 00bb 3097 d23d
00000240: 7c13 99b7 89f2 c43a cdc5 333e 3a71 0dbe
00000250: 59a7 a1ba b074 39bb 7efe 35be 3883 4d3b
00000260: 25b0 663b 9ce4 573b c33f ff3d 3fbd a5bc
00000270: 4c1d 9f38 c071 aebb 1478 adba d210 97b9
00000280: 0564 61bd afaa 90bb 4fc9 39bb 73c4 de3d
00000290: 8a3f 293b 515f 58bd 4c79 b3ba a08c 0dbd
000002a0: 0f5b deb8 b86e ecbc 4413 85ba 034b 1cbd
000002b0: 4e2b 0f3d cd0c 77bd 0f8e 98bc 8801 bf3a
000002c0: 5364 263e 0c3a 03ba 8668 00bc 5709 41bb
000002d0: 17ce 773e 143b 61bc fa9a 56be 0e72 edb8
000002e0: 7dcf a03d e6b3 55bb c3ad c2bb 7850 45bd
000002f0: 4bd8 aa3b dfb6 773e 651f c9bd 06ba 893b
00000300: ca7d 6cb8 a814 ae3a b6e4 2039 3473 ecbb
00000310: 685e cf3a 5175 05ba 9ec7 453a 3cc7 c638
00000320: a8d5 f6ba d06a 4aba 8dc0 2dba b13e 47b9
00000330: 6226 5e3a 62b6 97bc 6c07 8f38 51f9 bb39
00000340: 3dfc aab9 b8f1 4db9 4f8c c8bb 3b4f a0bb
00000350: 89d2 73bb 2ea7 c0ba b125 b9ba cf54 073c
00000360: b547 2c3e 0f0a 02ba e3a8 e23d 4d93 14ba
00000370: 5605 1e3a ba0f 7739 fc15 90ba 69c6 73bd
00000380: 04fb f0b9 6872 7dba b785 5fba c7dc 9239
00000390: b0a4 6bba 63aa feb8 789b 4fb8 555a 0ab8
000003a0: 3b4b 2cb9 5444 613a 00eb 4cb4 6368 803b
000003b0: 6200 253a 957f 30bb 6ce6 7b39 7798 6539
000003c0: f2a8 b339 aaec 6bbc 31b8 a0bc e416 653b
000003d0: 0285 613e 37d2 033b 1792 a6ba 3e91 0939
000003e0: d7bf 7b3a 4239 cb3c 4a5a 61b7 3111 77bd
000003f0: f9d7 4bbb b96c b93d 68de 8e39 b392 6e3b
